…
Creating sequences with length 30...
[OK] Created 3591 sequences
  X shape: (3591, 30, 3)  (samples, timesteps, features)
  y shape: (3591, 30, 3)  (samples, timesteps, features)
Splitting data...
[OK] Train set: 2872 sequences
[OK] Val set: 359 sequences
[OK] Test set: 360 sequences
 [OK]
  [Training] Building & Training LSTM...Building LSTM model...
[OK] Model built successfully
Model: "sequential"
_________________________________________________________________
 Layer (type)                Output Shape              Param #   
=================================================================
 lstm (LSTM)                 (None, 30, 64)            17408     
                                                                 
 dropout (Dropout)           (None, 30, 64)            0         
                                                                 
 lstm_1 (LSTM)               (None, 30, 64)            33024     
                                                                 
 dropout_1 (Dropout)         (None, 30, 64)            0         
                                                                 
 lstm_2 (LSTM)               (None, 32)                12416     
                                                                 
 dropout_2 (Dropout)         (None, 32)                0         
                                                                 
 dense (Dense)               (None, 90)                2970      
                                                                 
 reshape (Reshape)           (None, 30, 3)             0         
                                                                 
=================================================================
Total params: 65818 (257.10 KB)
Trainable params: 65818 (257.10 KB)
Non-trainable params: 0 (0.00 Byte)
_________________________________________________________________

Training model for 3 epochs...
Epoch 1/3

 1/90 [..............................] - ETA: 21:43 - loss: 0.2115 - mae: 0.3703
…
